notebooks/deep_learning/simple_model.pth (torch, 2104 bytes, 3 tensors)

fc1.weight f4 [4, 2]
0	0xbe84c3e4	-0.25930703
1	0xbe63d2aa	-0.2224833
2	0xbe5b968c	-0.21444148
3	0x3dca159a	0.098674014
4	0x3ea98870	0.33111906
5	0xbef391c9	-0.47572163
6	0x3f1f0955	0.62123615
7	0xbb24894f	-0.0025106256

fc1.bias f4 [4]
0	0xbf197a60	-0.59952354
1	0x3f18c587	0.596764
2	0x3e607fdd	0.21923776
3	0x3f3284c7	0.6973385

fc2.weight f4 [1, 4]
0	0x3e0dde35	0.13854297
1	0xbe3e5793	-0.18588094
2	0x3ea889c1	0.32917598
3	0x3de3a649	0.11115701
